data.pth (torch_old, 2197 bytes, 6 tensors)

l1.weight f4 [8, 15]
-0.16704461 -0.11307368 0.55540305 -0.17691821 -0.19401151 -0.031222597 -0.1721459 -0.28819457
-0.17820032 0.75272614 -0.2390709 -0.18859836 -0.16554585 -0.18141423 -0.19458586 -0.3713718
0.06300487 -0.33351117 0.6007607 -0.258783 0.57169247 0.43459645 -0.39945772 0.19879425
-0.00420083 -0.12074679 0.21950908 -0.017916031 -0.19856344 0.5368009 -0.25124493 0.046192557
-0.021651745 -0.15188225 -0.028800666 -0.26119128 0.059172034 -0.17717472 0.039356187 0.08818951
-0.18290181 0.15003802 -0.20621434 -0.05226259 0.13045295 0.10385018 -0.11204861 -0.18954092
0.55940354 -0.15811202 0.1829928 0.5047827 0.17060696 0.60695124 -0.111520514 0.07619096
0.31118122 -0.07123478 0.29703408 0.13559417 0.18866289 0.18691956 0.1961305 -0.074469805
0.1945695 -0.2373357 -0.14736485 -0.15550928 0.0022645593 0.0296974 0.16811207 0.03880907
0.07801309 0.0327707 0.07322031 0.063503794 0.32797998 -0.35820577 0.09242277 0.39643317
0.24325395 -0.37165055 0.2659031 -0.16362053 -0.15921375 0.56999636 0.15748912 -0.008517603
0.15422726 -0.22370803 0.07324978 0.084862255 -0.27742276 0.004578918 0.22746867 0.08454252
-0.31484848 0.5754366 -0.13818395 -0.15869462 0.5736689 0.3770318 0.076906905 0.50930315
-0.2694154 0.37516737 0.10812064 -0.172662 0.042911336 0.12707008 0.18708226 -0.337202
0.35129943 -0.36872151 0.4829161 0.47202453 0.21862066 0.29124546 0.24684677 -0.14290333
00000000: be0d 2bbe 2c93 e7bd e52e 0e3f 0c2a 35be
00000010: f4aa 46be 88c6 ffbc 0447 30be 3d8e 93be
00000020: 257a 36be a9b2 403f 01cf 74be ee1f 41be
00000030: da84 29be a7c4 39be 8441 47be 7224 bebe
00000040: b308 813d fac1 aabe 74cb 193f 357f 84be
00000050: 705a 123f 6d83 de3e b985 ccbe b890 4b3e
00000060: 1ea7 89bb 184a f7bd fdc6 603e a4c4 92bc
00000070: 3754 4bbe c96b 093f 2da3 80be 6834 3d3d
00000080: 005f b1bc 0587 1bbe 60ef ebbc ddba 85be
00000090: 605e 723d 4a6d 35be f433 213d b49c b43d
000000a0: 9d4a 3bbe 91a3 193e da29 53be 4c11 56bd
000000b0: 7595 053e 67af d43d be79 e5bd 0417 42be
000000c0: 1235 0f3f 1ee8 21be 7762 3b3e 7039 013f
000000d0: 97b3 2e3e 2861 1b3f de64 e4bd 020a 9c3d
000000e0: 2553 9f3e 8ae3 91bd da14 983e 33d9 0a3e
000000f0: d830 413e d767 3f3e 6fd6 483e a083 98bd
00000100: 3a3d 473e 2108 73be d0e6 16be d33d 1fbe
00000110: 0069 143b f647 f33c 9225 2c3e 42f6 1e3d
00000120: 54c5 9f3d 923a 063d 88f4 953d 470e 823d
00000130: feec a73e bf66 b7be 2648 bd3d 4af9 ca3e
00000140: 9017 793e fb48 bebe 7324 883e 248c 27be
00000150: ee08 23be 48eb 113f d444 213e 6b8d 0bbc
00000160: c0ed 1d3e b813 65be fb03 963d 43cc ad3d
00000170: 5b0a 8ebe c00a 963b 8ced 683e a124 ad3d
00000180: d233 a1be d04f 133f 1880 0dbe d880 22be
00000190: f7db 123f 500a c13e 5e81 9d3d b161 023f
000001a0: d1f0 89be f015 c03e 5b6e dd3d 4fce 30be
000001b0: ccc3 2f3d a91e 023e 7e92 3f3e bea5 acbe
000001c0: 85dd b33e 11c9 bcbe c740 f73e 33ad f13e
000001d0: 18de 5f3e 201e 953e 66c5 7c3e 4055 12be

l1.bias f4 [8]
0.527248 0.33341458 -0.17209016 0.22360636 -0.25883153 0.3582142 0.2608789 0.6448082
00000000: baf9 063f 51b5 aa3e 6738 30be 11f9 643e
00000010: 9185 84be da67 b73e eb91 853e 2612 253f

l2.weight f4 [8, 8]
-0.556802 0.41505823 0.098419175 0.6975608 0.31329218 -0.030316437 -0.42887825 -0.20484008
1.1100895 -0.46565002 0.27382126 -0.1523766 0.2104921 -0.57325757 -0.6901112 0.6864768
0.4276585 0.42404085 -0.08964699 0.71141547 -0.030416247 -0.32618558 -0.1560302 -0.40156853
-0.42905766 0.38470817 -0.044055358 0.5917851 0.31615224 -0.5571068 -0.17254134 0.08981795
-0.15255953 -0.070608124 -0.15573223 0.040226553 -0.106468454 0.55504644 0.7399669 0.29863146
-0.43423852 0.5940633 -0.30415046 0.86344224 0.2735716 0.5200603 0.38010034 0.33663046
-0.29348162 -0.14264181 0.17960486 0.15156259 0.2334241 0.6874705 0.61848605 0.657168
-0.4277188 -0.31385744 -0.102832496 0.17251346 -0.27644235 0.6251369 0.04939842 0.61697984
00000000: 938a 0ebf 8382 d43e fe8f c93d 5893 323f
00000010: d567 a03e 2d5a f8bc ee95 dbbe 99c1 51be
00000020: 6a17 8e3f ae69 eebe 4d32 8c3e 9d08 1cbe
00000030: 3e8b 573e 02c1 12bf 21ab 30bf f2bc 2f3f
00000040: 0ef6 da3e e21b d93e d798 b7bd 531f 363f
00000050: 7e2b f9bc cc01 a7be 61c6 1fbe 649a cdbe
00000060: 72ad dbbe 78f8 c43e 6473 34bd 3a7f 173f
00000070: b5de a13e 8d9e 0ebf adae 30be 79f2 b73d
00000080: 9138 1cbe fe9a 90bd 4578 1fbe 99c4 243d
00000090: 220c dabd 8617 0e3f 796e 3d3f 39e6 983e
000000a0: 8354 debe 8814 183f 9cb9 9bbe 8d0a 5d3f
000000b0: 9411 8c3e ac22 053f 839c c23e d45a ac3e
000000c0: 3943 96be b210 12be 56ea 373e 3933 1b3e
000000d0: ba06 6f3e 11fe 2f3f 1a55 1e3f 293c 283f
000000e0: f5fd dabe ecb1 a0be d899 d2bd 5ea7 303e
000000f0: da89 8dbe f908 203f ff55 4a3d 64f2 1d3f

l2.bias f4 [8]
0.40900257 0.8543262 0.8644267 0.40195006 0.02275979 0.28141654 -0.08586888 0.16503797
00000000: c968 d13e 1fb5 5a3f 114b 5d3f 66cc cd3e
00000010: bd72 ba3c d415 903e 06dc afbd b7ff 283e

l3.weight f4 [3, 8]
-0.5450932 -0.6384914 -0.54813886 -0.16859838 0.23706427 0.19041504 0.6774211 0.64272577
0.47522187 -0.8157101 0.39921308 0.7284749 -0.7442692 0.26282758 -0.4364151 -0.15361454
-0.7528328 0.76535267 0.35212946 -0.17712161 -0.5709251 -0.6717329 -0.14554802 -0.3696952
00000000: 3a8b 0bbf 2c74 23bf d452 0cbf 0ea5 2cbe
00000010: fac0 723e 29fc 423e 786b 2d3f ad89 243f
00000020: 4850 f33e 61d2 50bf a865 cc3e 557d 3a3f
00000030: 6d88 3ebf 5691 863e cd71 dfbe 214d 1dbe
00000040: a6b9 40bf 27ee 433f 504a b43e 5e5f 35be
00000050: 2628 12bf b0f6 2bbf 8a0a 15be b048 bdbe

l3.bias f4 [3]
-0.10887355 -0.59733284 0.5480532
00000000: 19f9 debd ceea 18bf 374d 0c3f
